Model: "sequential"
_________________________________________________________________
 Layer (type)                Output Shape              Param #   
=================================================================
 conv2d (Conv2D)             (None, 48, 48, 32)        896       
                                                                 
 conv2d_1 (Conv2D)           (None, 48, 48, 32)        9248      
                                                                 
 max_pooling2d (MaxPooling2D  (None, 24, 24, 32)       0         
 )                                                               
                                                                 
 dropout (Dropout)           (None, 24, 24, 32)        0         
                                                                 
 conv2d_2 (Conv2D)           (None, 24, 24, 64)        18496     
                                                                 
 conv2d_3 (Conv2D)           (None, 24, 24, 64)        36928     
                                                                 
 max_pooling2d_1 (MaxPooling  (None, 12, 12, 64)       0         
 2D)                                                             
                                                                 
 dropout_1 (Dropout)         (None, 12, 12, 64)        0         
                                                                 
 conv2d_4 (Conv2D)           (None, 12, 12, 128)       73856     
                                                                 
 conv2d_5 (Conv2D)           (None, 12, 12, 128)       147584    
                                                                 
 max_pooling2d_2 (MaxPooling  (None, 6, 6, 128)        0         
 2D)                                                             
                                                                 
 dropout_2 (Dropout)         (None, 6, 6, 128)         0         
                                                                 
 flatten (Flatten)           (None, 4608)              0         
                                                                 
 dense (Dense)               (None, 512)               2359808   
                                                                 
 dropout_3 (Dropout)         (None, 512)               0         
                                                                 
 dense_1 (Dense)             (None, 512)               262656    
                                                                 
 dropout_4 (Dropout)         (None, 512)               0         
                                                                 
 dense_2 (Dense)             (None, 43)                22059     
                                                                 
=================================================================
Total params: 2,931,531
Trainable params: 2,931,531
Non-trainable params: 0
_________________________________________________________________
training data is not found.
1/2 [==============>...............] - ETA: 1s2/2 [==============================] - 2s 28ms/step
…
